network_parameters.pth (torch_old, 54059 bytes, 12 tensors)

sigma f4 [4]
000000 06 60 e9 3e c3 3b d8 3e 94 5e ee 3d 72 b2 d5 3d
       0.45581073 0.42233095 0.11639133 0.10434426

actor.0.weight f4 [64, 33]
000000 31 06 bd 3d e6 05 9f bd a5 67 03 be 84 58 65 3e
       0.092296965 -0.07764797 -0.12832506 0.22397047
000010 26 54 40 3e 28 dc a0 3e d9 60 9a be 17 e4 79 3d
       0.187821 0.31417966 -0.30152014 0.06100854
000020 0b 0e e3 bd 6e fb a8 bd fe 84 e7 bd 01 7a bc 3d
       -0.11086663 -0.082510814 -0.11304663 0.09202958
000030 0a ff 72 3e a0 a2 11 bd 7b c6 58 bd 6e 05 76 be
       0.23730102 -0.035555482 -0.05292366 -0.24025509
000040 fa ad dc bd 0d f9 97 3e c8 64 d0 bd ec 24 58 be
       -0.10775371 0.29682198 -0.101754725 -0.21107835
000050 e6 78 71 be 06 9a e0 3d 57 78 59 3d 97 f7 6a 3e
       -0.23581275 0.10966878 0.05309328 0.2294601
000060 2f 63 2a 3e 0b ed a2 bd 12 c3 3d be eb 0d ec be
       0.16639398 -0.079553686 -0.18531445 -0.4610437
000070 d4 f3 c9 bd 19 b5 da bd 55 2c e2 3e 90 52 49 bc
       -0.0986096 -0.10679073 0.44174448 -0.012287751
000080 d1 a3 3d be 44 3d bc bd 92 6d 9b bd 7f 55 84 3e
       -0.18519522 -0.09191373 -0.07589258 0.25846478
000090 1e ed ba 3d 7c 3f 0a 3e ac a3 79 be 4b 20 a4 3e
       0.09127258 0.1350078 -0.24378842 0.32055888
0000a0 23 fd b7 be e9 e7 11 be 34 82 05 be 7c 5b 06 be
       -0.35935315 -0.14248623 -0.1303795 -0.13120836
0000b0 ea 15 49 be 29 3f 94 3e 4d 0f 87 be 67 7f 95 3d
       -0.19637266 0.28954437 -0.2637886 0.07299691
0000c0 c8 b8 74 3d 59 29 30 be 6f db df bd c1 2f df 3d
       0.059746534 -0.17203273 -0.109305255 0.1089778
0000d0 77 f6 52 3e 79 02 ab bc 53 45 1e bc 43 77 d3 3d
       0.20601831 -0.020875202 -0.009660083 0.10325482
0000e0 02 ea ee bc 2a bb cc bc bb e0 b8 3e b9 1d 02 3e
       -0.029164318 -0.02499159 0.36108956 0.12706651
0000f0 dc 26 33 3e d1 f8 17 be 0c a5 9e 3d 8c 91 08 be
       0.17495292 -0.1484101 0.07746324 -0.13336772
000100 b0 07 0f 3d d6 1e f6 3d 0e d3 66 be 80 db 9f bd
       0.03491944 0.120176 -0.22541448 -0.07805538
000110 a4 d8 0f be 62 84 d7 3d 08 25 32 be 19 73 a1 3c
       -0.14047486 0.10523297 -0.17396939 0.019708203
000120 12 31 a1 be 2f 37 00 be c6 1f 52 3e a4 74 fd be
       -0.3148275 -0.12521051 0.20519933 -0.49503052
000130 41 cb aa be 14 c9 c0 bd 10 2b 25 bd be fb bc 3d
       -0.33358195 -0.094133526 -0.04032427 0.092277035
000140 99 d5 53 3e ac 5c 0a 3e d4 28 10 3f 99 87 e3 be
       0.2068695 0.13511914 0.563123 -0.4443939
000150 30 8c a4 bd 1b f7 af be 6c 12 bb bd f9 e9 50 3e
       -0.08034551 -0.34368214 -0.09134373 0.20401753
000160 a8 da 05 be 45 83 71 be c4 e1 4e bd 32 52 1b 3e
       -0.13071692 -0.23585232 -0.050508276 0.15168074
000170 14 c5 14 be 49 82 16 3d ff 68 28 be d0 ff ab bd
       -0.14528304 0.036745343 -0.16446303 -0.08398402
000180 6a d6 3e be 68 d0 3a bd b1 12 4a be 8b e4 b4 3d
       -0.1863648 -0.045608908 -0.19733693 0.088326536
000190 15 86 4b 3d 31 89 14 be ce 9b 65 bc 38 66 b1 bd
       0.049688417 -0.1450546 -0.0140141975 -0.08662075
0001a0 da 29 39 be 18 1a ae be d7 06 ec bd f6 7a 33 bf
       -0.18082371 -0.34004283 -0.11524742 -0.701095
0001b0 27 62 12 3e f8 8c 1b 3e 62 c0 67 bc 5e 53 2f 3e
       0.14295255 0.15190494 -0.014144989 0.17121646
0001c0 01 02 9c 3d c9 5e 8d 3e 94 4a bc be ea 88 62 3d
       0.0761757 0.27611378 -0.3677565 0.055306353
0001d0 61 fc 59 3e 07 50 0b 3e 62 0c af 3d 4f 73 9d be
       0.21287681 0.13604747 0.08547284 -0.30752036
0001e0 aa 26 ed 3c 33 0e 92 3c ef 54 6d bd 7b ab a0 3c
       0.0289491 0.017829036 -0.057942327 0.019613018
0001f0 d4 a9 60 3a b2 bd b6 bd f1 1b ac 3d 33 52 6e be
       0.0008570228 -0.089229 0.08403767 -0.23273544
000200 30 86 0c 3d 4c ac 84 bd f0 10 83 bc 81 2a 5c 3e
       0.03430766 -0.064781755 -0.015999287 0.21500589
000210 82 0f 5d bd e2 62 97 bd 01 fd 13 3d b5 f7 19 be
       -0.053969868 -0.07391907 0.036129955 -0.15035899
000220 7c c9 aa 3d d5 2d b0 bd 44 fe 6a be ff cd 88 3e
       0.08339211 -0.08602492 -0.22948557 0.26719663
000230 22 09 6c 3e 79 08 6a b9 2f a6 ec bc bd b7 14 bd
       0.23050359 -0.00022319135 -0.028887836 -0.03630804
000240 20 48 a0 3c 7a b3 c0 be 5f f1 f1 3d 12 2b b8 be
       0.019565642 -0.3763693 0.11813616 -0.3597036
000250 4f 97 70 3e c5 c7 43 be b4 4c b2 be ce 65 59 bd
       0.2349522 -0.19119175 -0.34824145 -0.053075604
000260 9d 8a 3d bd 80 0c 12 be 32 3b 85 3e f3 fd 85 3d
       -0.04627477 -0.14262581 0.26021725 0.065425776
000270 11 9b 48 3e 79 bf e2 bc f5 90 57 3e bf 6f 18 bd
       0.19590403 -0.027679192 0.2105139 -0.037215944
000280 e1 5d 3f 3e df bc 14 be c9 c2 70 bd 84 c1 d8 3d
       0.18688156 -0.14525174 -0.05877951 0.10583785
000290 9e dd d1 bd e3 13 92 be 15 dc 9c bd 26 cb 6d 3e
       -0.10247348 -0.28530797 -0.07659165 0.23222026
0002a0 c8 df 43 bd 5b 9c 12 be 11 a4 94 bd ba a1 1d 3e
       -0.047820836 -0.14317457 -0.07257856 0.15393725
0002b0 ec 52 bb 3d a6 9a 85 3e 9d 41 9a be 7c 14 8a be
       0.091466755 0.2609455 -0.30128184 -0.26968753
0002c0 f8 4e 3f bd eb fd 01 be 49 b9 09 bd 6c 84 8f be
       -0.04670617 -0.12694518 -0.033623967 -0.28030717
0002d0 98 f8 be 3a 82 df 44 3e 9c a6 96 be 98 65 0f be
       0.0014569936 0.19225886 -0.29423988 -0.14003599
0002e0 78 85 a6 3e d0 a0 9a be ae d7 9a be 3c 1d 8d be
       0.32523704 -0.30200815 -0.30242676 -0.27561367
0002f0 2d 1a bf 3d e1 0f af bd 13 c0 5b bc 68 a5 36 be
       0.093311645 -0.085479505 -0.013412493 -0.17836535
000300 c7 75 14 3e b2 69 b3 3c 97 05 32 be 87 d2 29 be
       0.14498053 0.021900985 -0.17384945 -0.16584216
000310 0c 0e 27 3e 39 cc 65 be 75 68 10 3e 6e fb a5 bd
       0.16313952 -0.22441186 0.14102347 -0.08104597
000320 17 6a 16 3e 75 da 22 3e b5 22 8c 3d d6 d0 1b 3e
       0.14688908 0.15903647 0.06842557 0.15216383
000330 11 e8 b2 3d d7 22 a1 3e e6 3e 46 be 7b de 44 bd
       0.087356694 0.31471893 -0.19359931 -0.048063736
000340 e4 33 34 3d cd d1 87 3e 39 5d f4 bd 35 c8 60 bd
       0.0439948 0.26527253 -0.11931843 -0.054878432
000350 77 45 9e bc e1 41 2f bc 09 fc 32 3d 72 2d 23 3e
       -0.019320233 -0.010696859 0.04369739 0.15935305
000360 f2 9f 37 be 51 6b c9 3e 16 66 03 3e 9c 55 86 bd
       -0.17932108 0.39339688 0.12831911 -0.065592974
000370 3b 9c b6 3e 08 9e b8 be 6f 0e 11 3e 69 85 65 3d
       0.3566607 -0.36058068 0.14165662 0.056035433
000380 b6 0f b0 3d 53 18 25 be 9b ad 84 be ae 0b 17 be
       0.085967466 -0.1612256 -0.259137 -0.14750549
000390 9c 69 9f bd 69 66 e7 bd d8 5f d4 3e 23 53 55 be
       -0.07783815 -0.1129883 0.41479373 -0.20832495
0003a0 21 34 c8 bc 9e db 22 bd 2c d6 a8 3d b1 b5 f5 bd
       -0.02443892 -0.039760225 0.08243975 -0.119975455
0003b0 58 16 72 3d 7b 2d ac bc de 4f 1b 3c 93 7d 98 be
       0.05910334 -0.02101778 0.009479491 -0.29783306
0003c0 b9 74 0f bc 70 12 2b bd 79 28 71 3d 95 61 c3 bd
       -0.008755856 -0.04176563 0.05887649 -0.09540097
0003d0 35 16 47 3e a0 94 ed bd c4 76 55 3e 66 4b 42 3e
       0.19442065 -0.116006136 0.20846087 0.18974075
0003e0 f0 d8 ee 3d 95 b6 70 3e 3c cb 26 bd 94 08 a1 3d
       0.11662471 0.2350715 -0.040721163 0.07862964
0003f0 f4 e0 81 be 19 b9 29 3d 7e 17 f0 3c 19 64 36 3e
       -0.25366938 0.04143629 0.029308077 0.17811622

actor.0.bias f4 [64]
000000 a7 5a 5e 3e 9b ef 63 3c 6f 26 a3 bc c9 87 23 3d
       0.21714269 0.013912107 -0.019915788 0.039924417
000010 89 1b a6 3d b0 cf 88 bd 5e e7 bc bd 15 a7 a4 bd
       0.08110721 -0.06680238 -0.09223817 -0.08039681
000020 9a c3 0f be da 03 30 be 11 23 a8 3e 45 0f 87 be
       -0.1403946 -0.17188969 0.32839254 -0.26378837
000030 e9 b1 5e 3d 7b 8b 95 3e d2 6c 2a 3d be 76 2c be
       0.054368887 0.29207978 0.041607685 -0.16842172
000040 2f 5c 1e bd 36 92 02 3d c4 9b 9d 3c ad d9 1c be
       -0.038662132 0.03187772 0.019239314 -0.15317412
000050 9b bc 83 3e 08 11 12 3e 6f 8c 86 bc d7 75 41 be
       0.25729832 0.1426431 -0.016424386 -0.18892609
000060 f3 21 dd bd 3b 28 04 3e 75 e6 80 3d b1 5e aa bc
       -0.10797491 0.12905972 0.06293956 -0.020797106
000070 fc 48 85 3e 11 ea 20 3e 62 3b e1 3d 65 80 2a bd
       0.26032245 0.15714289 0.109976545 -0.041626353
000080 16 5a e5 3d c1 d5 5f bd 28 49 9d bd 08 f3 e5 3d
       0.11198823 -0.05464721 -0.07679969 0.11227995
000090 53 31 49 be 2d cf f7 bc 0c 41 0f be 0e a0 00 be
       -0.19647722 -0.030250156 -0.13989657 -0.12561056
0000a0 27 d3 bc 3d 73 4d 06 3e da 71 a7 3c ee 72 fc bb
       0.092199616 0.13115482 0.02044003 -0.0077041304
0000b0 f3 05 f1 3d be d1 44 3e cb 96 fd 3c 32 40 ed 3c
       0.11768713 0.19220635 0.030955693 0.028961275
0000c0 82 a0 c0 bd d5 7c a9 3d 35 b5 8b 3d 33 73 1c 3e
       -0.094056144 0.08275763 0.06821672 0.1527832
0000d0 b3 a4 a9 3d 37 62 81 3e 41 7e 07 bd 30 76 03 3e
       0.08283367 0.25270244 -0.03307939 0.12838054
0000e0 29 ff 30 be 32 67 5f 3c df 50 18 be 72 a0 eb 3d
       -0.17284836 0.0136354435 -0.148746 0.11505212
0000f0 0c bf bf bd 91 81 fb 3a b3 63 6e 3d 57 a7 ce 3c
       -0.09362611 0.0019188394 0.05820055 0.025226278

actor.2.weight f4 [64, 64]
000000 ac 7e 23 3d 69 73 22 3e 07 0b 31 3d 08 39 e4 bd
       0.039915726 0.15864338 0.043223407 -0.1114369
000010 eb cd eb 3e 59 bf f9 bc 18 41 67 3e a3 9f 9f 3d
       0.4605554 -0.03048675 0.22583425 0.0779412
000020 11 df 14 bd ad fe a4 3d c8 ee 0b bd 49 75 38 bc
       -0.036345545 0.08056388 -0.034163266 -0.011258432
000030 84 61 8d bd 35 d2 51 be 6f 91 f0 bd 8b 99 52 3e
       -0.06903365 -0.20490344 -0.11746489 0.20566384
000040 a6 b3 84 bd a4 5d 14 be 03 24 f0 3d 1a ce 43 bd
       -0.06479578 -0.14488846 0.11725619 -0.047803976
000050 2c 13 13 3d 47 3e d9 3d 8c 0a bb bb ba 8e 83 bd
       0.035906956 0.106075816 -0.0057080444 -0.06423707
000060 0e fa 12 bd 72 e7 e0 bd f4 70 c8 bd d5 0b 44 3e
       -0.035883002 -0.10981645 -0.09787169 0.19145139
000070 ac 2b ac bd 22 43 0d be 0b 54 99 bc 01 08 f3 bd
       -0.08406767 -0.1379514 -0.018716833 -0.11866761
000080 85 35 ab bc 13 dd a3 bd 65 ee 2c 3e fb 59 96 bd
       -0.020899544 -0.08001151 0.16887815 -0.07341381
000090 ba c6 20 bb ba e7 91 3d e7 a0 6a be f5 9d 9b 3e
       -0.0024532513 0.071242765 -0.22912942 0.3039395
0000a0 39 7f b8 3b 6b 0e 57 bd 9b d9 9d bc cd 3d e0 bc
       0.0056304005 -0.052503984 -0.019268801 -0.027373219
0000b0 44 39 36 3d 3b f8 49 be 40 85 71 3d 8b e7 12 be
       0.044488207 -0.19723599 0.058964968 -0.14346139
0000c0 ee 53 dc bd 2a 24 6f bd c8 27 96 bd 1c 52 6a bc
       -0.10758196 -0.058384098 -0.073318064 -0.014301803
0000d0 34 87 4a be 1b 07 09 3c 08 27 4f be a9 84 e6 bb
       -0.19778138 0.0083635105 -0.20229733 -0.0070348573
0000e0 33 7f 32 be 87 47 a4 3b a1 57 5f bd 55 4a 2e bd
       -0.17431335 0.0050134095 -0.05452693 -0.042551357
0000f0 1b 5c 51 3e 63 86 28 3c c9 c5 b4 3d f4 ad f2 bd
       0.20445292 0.010285947 0.08826787 -0.11849585
000100 92 53 23 be c3 e1 81 be 8b 83 91 3b be 18 80 bd
       -0.15949848 -0.25367555 0.00444073 -0.06254719
000110 50 97 c7 3d af 5b bc bd cd 7f c4 bd 4d 3a 40 3e
       0.097456574 -0.09197175 -0.095946886 0.1877224
000120 e9 9f c2 bd 2f ce 1f bd 38 25 3e 3e f5 e0 f3 bd
       -0.09503157 -0.03901499 0.18568885 -0.119081415
000130 ab ef 87 bd 12 53 07 3e 81 ab c5 bb bd 3d bf 3d
       -0.0663751 0.13215283 -0.0060324077 0.093379475
000140 df 93 9c bd b6 11 c7 3d 85 25 19 be 75 85 8c bd
       -0.07645392 0.09720175 -0.14955719 -0.068613924
000150 4e 38 1e 3c 98 dd ec 3d f6 42 3e be 15 0f 90 bd
       0.009656979 0.11565703 -0.18580231 -0.07034127
000160 58 a3 cf 3d 14 e7 ed 3d 85 88 bb bd 93 a1 88 3d
       0.10138577 0.1161634 -0.091568984 0.06671443
000170 25 e7 3a be 51 bb 66 3d 32 2e 48 be 9d 85 02 bd
       -0.18252237 0.056330983 -0.19548872 -0.031865705
000180 91 5f 7a bc 71 85 95 3d c9 6f 13 be 0c b4 fd bd
       -0.015281574 0.073008426 -0.14398111 -0.12387857
000190 b2 ca 00 3e 0d 25 09 3e d1 cd bd 3c 89 9f e8 bd
       0.12577322 0.1339304 0.02316943 -0.11358554
0001a0 db 11 fd bd 96 c3 ae bd ee fe a3 bc 27 fb 03 be
       -0.12356921 -0.08533399 -0.02001902 -0.12888776
0001b0 33 ec 32 be a9 6d 92 3e ad 13 4b 3d 36 ce 04 be
       -0.17472915 0.2859929 0.04957931 -0.12969288
0001c0 da 53 a4 bd c9 c3 c5 3d e1 73 16 be 95 65 09 3e
       -0.08023806 0.09656484 -0.14692642 0.13417657
0001d0 66 cc a9 3d ec ec 3d be d3 44 04 be 1e ae 81 3e
       0.08290939 -0.1854741 -0.1291688 0.25328153
0001e0 c3 76 2d 3e 28 6a c1 3d be 83 99 3d 14 44 0c bd
       0.16939835 0.09444076 0.07495831 -0.03424461
0001f0 f1 a4 14 3e c3 f0 98 be 9e b5 46 be 6c f9 a9 bc
       0.14516045 -0.29871187 -0.19405219 -0.020748816
000200 52 f2 89 39 e9 3c fd bd 59 12 25 3d 9d 30 36 bd
       0.0002631122 -0.12365133 0.0403007 -0.044479955
000210 0b ea 21 3d 1f 0b 80 3d 6f 70 91 3d 5b e8 fd 3c
       0.03952984 0.06252121 0.07101523 0.030994585
000220 8e 43 fa 3b 0e 7a 9a 3c 5f 10 4f 3e bd 3d d2 bd
       0.0076374477 0.018857028 0.20221089 -0.10265682
000230 a9 1e 9a 3c b1 c2 11 bd 3d 55 17 3e 24 c6 58 be
       0.018813448 -0.035586063 0.1477861 -0.21169335
000240 fa 58 d2 3d b9 7b 2e be 66 b3 88 be 72 8f 37 be
       0.10270877 -0.17039384 -0.2669937 -0.17925814
000250 63 bf 43 be 15 91 7f 3d b5 35 d6 3d 3c 2a 45 be
       -0.19115977 0.06239422 0.104594626 -0.19254392
000260 37 e8 55 bd 01 29 e1 bd c0 57 46 3e a6 48 35 bd
       -0.05222341 -0.10994149 0.19369411 -0.044258736
000270 56 65 4f be b0 01 6b be b1 44 97 bd 51 a3 ee 3c
       -0.202535 -0.22949862 -0.07386149 0.02913061
000280 ca 7a 37 be 0b 5d d0 bd 7a f6 60 3e 0e 0e 1d 3e
       -0.17917934 -0.101739965 0.21969023 0.15337393
000290 c5 5d 3d be bb 92 0d bd 6c 8c 95 bb 01 71 ac 3d
       -0.18492801 -0.03456376 -0.0045638587 0.08419991
0002a0 3a 10 96 be a4 c2 09 be 19 6f a0 3e 71 c2 a1 be
       -0.29309255 -0.13453156 0.3133476 -0.3159366
0002b0 fe b5 a6 bc 9a b2 f8 3d 02 9e 03 3e bd 9f 1d be
       -0.020350453 0.121434405 0.12853244 -0.15392967
0002c0 94 06 2d bd 01 12 2f 3e 7e da db 3c 8b 6e 97 be
       -0.0422426 0.17096712 0.026837584 -0.29576525
0002d0 c3 44 0c bd 1a 72 f3 3c cb 5a 30 3d 14 e3 0d bd
       -0.034245264 0.029717494 0.043055337 -0.034640387
0002e0 75 9c bb bd ee 16 4a be e9 ae 2b 3c f2 ed 32 3b
       -0.09160701 -0.1973531 0.010478714 0.002730247
0002f0 28 12 fd 3c a3 20 22 be ea d2 08 3c d5 18 9e 3a
       0.030892447 -0.15832762 0.008351067 0.0012061844
000300 bd c4 1a 3e c7 ae 75 be a7 28 13 be 0b 1a 6e 3e
       0.15114112 -0.23992454 -0.14370976 0.23252122
000310 c3 30 86 bc d7 97 53 be e0 b4 dc bc f2 43 97 be
       -0.016380673 -0.20663391 -0.026941717 -0.29544026
000320 d8 fb b4 3c be 6e 3f 3e bf fb 17 3e 97 28 30 3e
       0.022092745 0.18694589 0.14842127 0.17202984
000330 a3 24 b9 bd f5 77 d3 bc 9e 84 48 be a4 cf 27 3d
       -0.09040191 -0.025814036 -0.1958184 0.040969506
000340 a9 c7 10 3e 8e 3d b8 bd ea 3b 01 bc 3e ea d3 bc
       0.14138664 -0.089961156 -0.00788782 -0.025868531
000350 41 ba d2 bc 1e d0 75 3d 1d a7 0e 3e 77 3f 28 bd
       -0.025723578 0.06001293 0.13930936 -0.04107615
000360 66 9c ff ba 62 7b 90 3c 74 0c 14 3e e6 ac 8b be
       -0.0019501566 0.017636959 0.14457875 -0.2728035
000370 d7 a5 2b 3c 6e cf 9e bd 84 32 3a bd e6 4b 2d 3e
       0.010476551 -0.07754408 -0.04545833 0.16923484
000380 fa fc cb 3d cb 5c 42 3d 4e 37 a5 bd 3e 41 38 3e
       0.09960361 0.047451776 -0.08067189 0.17993638
000390 f7 86 92 bd db c6 0b 3e 9d e4 50 3d 73 a2 55 3e
       -0.07154649 0.13650076 0.050999273 0.2086275
0003a0 4b 0a f6 bd 4e f1 32 3e 9a bb 14 bc 07 6f 95 3d
       -0.12013682 0.17474863 -0.009077931 0.072965674
0003b0 22 20 2e 3d ac dc 66 be ec 50 31 3e bd 85 15 3e
       0.042511113 -0.22545117 0.17316025 0.14601798
0003c0 32 6a 91 3c 40 6b 21 bc 67 c7 0e be 8b 1f fa bd
       0.017750833 -0.009852231 -0.13943253 -0.122130476
0003d0 37 c8 1a bd fe 79 d8 3d a4 77 a4 3e ae 81 d6 3c
       -0.037788596 0.10570143 0.3212253 0.026184883
0003e0 a6 ab a5 3c 8f f1 f0 3d 32 e2 f5 bd d7 57 17 3e
       0.02022345 0.11764824 -0.12006034 0.14779602
0003f0 66 4c b2 bd 2b 33 b1 3c cb 1e 0a be d8 7f 72 3e
       -0.08705978 0.021630844 -0.13488309 0.23681581

actor.2.bias f4 [64]
000000 db 9d 9c bd f3 a1 c0 bd 48 eb e8 bc 7a 28 bf 3d
       -0.07647296 -0.09405889 -0.028432503 0.09333892
000010 2a c8 b3 3d 38 0a d9 bd 47 fe b1 bd 0b 3f 4c 3e
       0.08778413 -0.10597652 -0.08691078 0.19945924
000020 38 0d 96 bd 6a 4d b0 3d a6 50 b5 3d 63 7e 97 bc
       -0.0732674 0.086085156 0.08853273 -0.018492883
000030 6f 8b 68 3d d6 51 05 be f7 eb 16 3d 11 82 67 bd
       0.0567736 -0.13019499 0.036846127 -0.056520525
000040 95 c6 e0 bb e1 25 a9 bc 5d 50 87 3c 75 7b c1 bd
       -0.0068596103 -0.020647945 0.016517812 -0.09447376
000050 84 ee 96 bd 0f 18 de 3d 42 e0 e5 3d 41 7a cf bd
       -0.07369712 0.108444326 0.112244144 -0.1013074
000060 5c bf 01 3e 4e f5 b3 bd df f6 96 bd b4 08 b1 3d
       0.12670654 -0.087870225 -0.07371306 0.08644238
000070 88 43 c9 bd f5 91 e1 3d a7 e1 68 bd 99 a7 73 bd
       -0.09827334 0.11014167 -0.056855824 -0.059486005
000080 bb 53 90 bd 3e 26 7d bd bf 38 2e 3e e2 5d c7 3b
       -0.0704722 -0.06180405 0.17013834 0.0060841898
000090 1b 83 12 3e 85 39 8c 3c e7 a3 11 be 91 da 2c bc
       0.14307825 0.017117271 -0.1422268 -0.010550157
0000a0 8c a0 49 3e f8 fa 98 3b bb b1 a1 3d ff 27 77 3e
       0.1969015 0.0046685897 0.078952275 0.24136351
0000b0 c1 5c 5f 3d 53 02 eb 3d f0 55 c9 bd 12 4a d7 3d
       0.054531816 0.11475053 -0.098308444 0.10512175
0000c0 50 fa 63 3d 37 9c 3f bc 60 7a b2 3d f9 57 a8 3d
       0.05565864 -0.011694959 0.087147474 0.082199045
0000d0 23 df ba bd f3 f5 28 bd 00 66 a7 3d c2 c5 5e bd
       -0.09124591 -0.04125018 0.08173752 -0.054387815
0000e0 19 c0 e1 3d 74 e3 cd 3d c6 42 04 3e 0b 1c 03 bc
       0.11022968 0.10053149 0.12916097 -0.008002291
0000f0 f3 51 8b 3d 38 18 0d 3e bf 7a d5 3d bc 8a 83 bd
       0.0680274 0.1377877 0.104238026 -0.06422946

actor.4.weight f4 [4, 64]
000000 05 6a 78 be e6 55 16 be 77 d7 30 be 0f 28 40 be
       -0.24259193 -0.14681205 -0.17269693 -0.18765281
000010 39 97 47 3e 80 a5 83 3d 60 d9 ce 3e 0a 7e b8 3d
       0.1949128 0.06428051 0.4040022 0.09008415
000020 76 0e 02 be 72 a5 94 be b3 18 8c 3e 20 16 3a be
       -0.12700829 -0.29032475 0.27362594 -0.18172503
000030 35 60 8f be e5 21 cf be ec ef 64 3e 8c 96 c7 be
       -0.28003088 -0.40455547 0.22357148 -0.38982046
000040 d2 7d 6a bd f3 5f 1d be 94 f7 1d 3e 25 9f c1 3e
       -0.057248898 -0.15368633 0.15426475 0.3781673
000050 b9 c3 51 3e 64 66 b4 3e 9c 39 30 3e 28 f8 0f be
       0.20484819 0.35234368 0.17209476 -0.14059508
000060 fe 0b 93 be d7 4c ee bc 5f 1a a5 be b5 c0 6d bb
       -0.28720087 -0.029089374 -0.32246682 -0.0036278192
000070 b5 18 d9 be 44 09 9a bc 8b ca 98 be 9c c0 ac be
       -0.42401662 -0.018803246 -0.29842028 -0.337407
000080 b7 c7 14 bf 3d 98 25 3e 93 4c e9 3d e4 22 de 3d
       -0.5811724 0.16171356 0.113915585 0.108464986
000090 d5 1d b0 bd 7e 34 e8 ba 6d 36 87 3e ce 0e 09 bf
       -0.0859944 -0.0017715839 0.2640871 -0.53538215
0000a0 1d 05 b1 bd 03 0f 10 3e 80 b1 07 3e 73 c4 22 3e
       -0.086435534 0.14068227 0.13251305 0.15895252
0000b0 34 c4 2f 3d 07 d2 88 be 1a 59 a9 be 83 20 55 3d
       0.042911723 -0.26722738 -0.33075792 0.05203296
0000c0 b7 f3 63 be 46 17 29 be f0 d4 ac 3e 09 a0 d3 be
       -0.22260939 -0.16512784 0.33756208 -0.41333035
0000d0 ef 2d ba 3d d9 32 e3 ba 1e e5 49 be 80 7a 23 3e
       0.090907924 -0.0017333879 -0.19716308 0.15964699
0000e0 c2 59 fd 3d dd 10 5d 3e 33 b2 46 3e b3 30 f0 3d
       0.123706356 0.21588464 0.19403915 0.11728039
0000f0 b0 5f e9 bd ff 4a 6a be 00 85 56 3c 6a fc 5a 3e
       -0.11395204 -0.22880171 0.013093233 0.21385351
000100 2c ff 4e 3e c3 65 9b bd 3a 0f 03 be cc 73 4b be
       0.20214528 -0.07587769 -0.12798777 -0.19868392
000110 21 5e 6e bd d9 b0 e4 3d 7d 08 8a bd 63 25 63 be
       -0.058195237 0.111665435 -0.067399 -0.2218223
000120 f1 b0 e2 bc 83 fa 60 3d c8 3e 9c 3d fb d8 ee bd
       -0.027672263 0.054926407 0.07629162 -0.116624795
000130 db 38 16 be 6d 7a 9f 3e b0 84 73 3e e2 8d 29 be
       -0.14670126 0.3114809 0.23781085 -0.1655803
000140 34 c8 81 3c 53 00 f5 3d 5a 6c 88 be 9b 81 f0 3e
       0.015842535 0.119629525 -0.26645166 0.4697388
000150 ac 3c 79 bd 07 eb f5 bd 35 a3 9b be ec b4 a8 3d
       -0.060848877 -0.120077185 -0.30397955 0.08237633
000160 af 99 82 bd 65 30 96 3d 93 ac 25 3e 2a e7 ae be
       -0.06376969 0.07333449 0.16179113 -0.3416074
000170 b6 41 02 3d 6e bf 0e bd 3e fc 52 bc 84 b8 a0 3d
       0.031800948 -0.03485053 -0.012877522 0.078476936
000180 0a d5 70 3d d1 da 98 3e 26 79 3a be f7 ef 04 be
       0.05879692 0.29854444 -0.18210277 -0.12982164
000190 a1 f2 82 3d ae 2e db 3e 09 5f a9 3e 42 3f bf 3c
       0.06393934 0.4280905 0.3308032 0.023345593
0001a0 43 49 56 3e db 48 85 3e af 16 33 bc ab 67 f7 3d
       0.20926385 0.26032147 -0.010930701 0.1208032
0001b0 3e 61 ce bd 2f ac 11 be 9d 2b bb bd d7 1c 8a 3d
       -0.10077141 -0.14225839 -0.09139178 0.06743782
0001c0 c7 d3 91 3e a0 6a b7 be 1c d2 e3 bd 24 60 79 be
       0.28481886 -0.35823536 -0.111240596 -0.24353081
0001d0 05 60 30 be c8 48 63 bd 22 e3 40 3e 5c 2f 6f 3d
       -0.17224129 -0.05548933 0.18836644 0.058394775
0001e0 bb c4 fe 3d db 87 79 be 49 a3 8c be 14 3e 00 3e
       0.12439867 -0.24368231 -0.27468327 0.12523681
0001f0 dd 29 9a be ba 00 aa be dc 87 b4 be 40 94 81 3e
       -0.30110064 -0.3320368 -0.35259902 0.25308418
000200 a6 6f c0 3c 5c 12 a8 be 4e 1a cf 3d 2b 97 95 3e
       0.023490738 -0.32826507 0.10112439 0.29216895
000210 7b b2 02 be 49 a6 b6 be e9 1a 89 be 50 6d 6e 3e
       -0.12763397 -0.3567374 -0.26778343 0.23283887
000220 07 f1 d0 be 4b 0f 04 be f0 13 33 be 9a 8c 74 be
       -0.4080889 -0.12896459 -0.17488074 -0.2388176
000230 48 6a 18 3f 2b 34 38 3e 87 4b 28 3e 13 95 c5 3d
       0.5953717 0.1798865 0.16435061 0.09647574
000240 e9 3a d8 3e 31 cf b4 be 54 df 7e be 00 57 92 3e
       0.42232445 -0.35314324 -0.2488988 0.28582
000250 75 62 9e be a7 5a 86 be 70 47 39 be 16 dd a9 be
       -0.30934492 -0.26241037 -0.18093657 -0.33176488
000260 f9 62 0a 3d c2 35 d5 be bf b6 4a be 24 b2 38 3e
       0.033785794 -0.41642576 -0.19796275 0.18036705
000270 2f a3 09 3e 80 68 53 3e 78 ae 57 be 06 a6 70 be
       0.13441156 0.20645332 -0.21062648 -0.23500833
000280 82 30 69 be 80 fd 3f bd 36 34 8c 3e 40 75 ac 3d
       -0.2277241 -0.046872616 0.27383584 0.08420801
000290 05 3c e9 3e 8f 23 3b 3e b6 a1 b2 bd 9c f1 ce bd
       0.45553604 0.18275283 -0.0872225 -0.10104677
0002a0 1b bb b9 3e 33 4f 80 3d 44 3d 16 be 58 8a 0b 3e
       0.36275563 0.06265106 -0.14671808 0.13626993
0002b0 1f 8f 9b be 47 5c 01 3e b9 c6 a6 3d c6 73 f9 3d
       -0.3038263 0.12632857 0.08143372 0.12180285
0002c0 be 2a 2f 3e 37 e6 31 be 71 0d ca be 73 45 33 3e
       0.17106149 -0.17372976 -0.3946338 0.17506962
0002d0 07 9a fa bd ae 36 3e bd 56 2d 6c 3e 73 e5 bf 3e
       -0.1223641 -0.046438865 0.2306417 0.37479743
0002e0 1f 8d 16 3f e3 84 79 bd 02 f1 1c 3e 3f 64 50 3e
       0.58809084 -0.060917746 0.15326312 0.20350741
0002f0 84 20 40 3d 84 65 92 3e 2f 62 77 be 1f 6b f4 be
       0.04690601 0.28593075 -0.24158548 -0.47737977
000300 27 dc 74 bc 32 db c3 3d 84 99 b7 3e cc 98 0b be
       -0.0149450665 0.095632926 0.3585931 -0.13632506
000310 80 8a ef 3e c5 c7 88 be 8a ed 3d 3e 04 fe 56 3e
       0.46785355 -0.26714912 0.18547645 0.20995337
000320 0b 61 36 3c 52 77 ab 3e 71 8b 15 3b ac ce 19 3f
       0.011131535 0.33489472 0.002281871 0.6008098
000330 d0 c7 18 be 59 96 2f be af 21 51 3e 75 cb a1 be
       -0.14919972 -0.17147197 0.20423006 -0.31600538
000340 ec 75 32 3e d1 88 77 3e e4 79 7f 3e 13 04 9b bc
       0.17427796 0.24173285 0.24948841 -0.018922841
000350 58 b0 61 3e d0 19 ab be 95 61 cd 3d 0a 3d 8d 3d
       0.22039926 -0.3341813 0.10028378 0.06896408
000360 37 8c b3 3e ba 1d a2 3e 50 df 94 be 3e ab ae bd
       0.35067913 0.31663305 -0.29076624 -0.085287556
000370 ab 3b 0e be a4 af 2a be 29 23 9f 3e 3f 81 15 be
       -0.13889949 -0.16668564 0.31081513 -0.14600085
000380 84 f3 ee bc 0f 36 c1 3c ac cc 6a 3e 4e e3 20 3e
       -0.029168852 0.023585347 0.22929639 0.1571171
000390 5e d4 2c 3e 62 90 9b 3d df ca 2e 3e bd 65 28 3e
       0.16877887 0.07595898 0.17069577 0.1644506
0003a0 41 61 00 3f c2 80 03 bd 7c 66 ba be 93 c5 d6 3d
       0.501484 -0.032105215 -0.36406314 0.10486903
0003b0 95 58 ec 3d 50 53 6d 3e 82 04 6a be 54 86 01 bf
       0.11540333 0.23176312 -0.22853282 -0.50595593
0003c0 43 18 08 be 79 39 55 bd 18 5f 14 3f 93 e1 94 3e
       -0.13290505 -0.052056763 0.579576 0.2907835
0003d0 7e b7 68 3e 79 4a dd 3e 10 97 97 3e 41 8f dc 3d
       0.22726247 0.4322088 0.2960744 0.10769511
0003e0 20 f6 e2 ba 6b ae 12 3e d6 be 71 bd 84 4f 0b be
       -0.0017315783 0.14324348 -0.059019886 -0.13604552
0003f0 91 1a 7e be 7e b9 2a 3e 26 e4 c2 bc 73 56 38 be
       -0.24814822 0.16672322 -0.02379043 -0.18001728

actor.4.bias f4 [4]
000000 58 44 35 36 bb 12 b9 bd bc 29 9b 3c a5 61 0d bc
       2.7010883e-06 -0.09036776 0.018940799 -0.008629237

critic.0.weight f4 [64, 33]
000000 79 89 21 3d 1e b0 93 bd 3a f6 c2 bd a6 e6 25 bd
       0.039437745 -0.07211326 -0.0951962 -0.040503167
000010 a4 70 65 3e d8 c2 f5 bd 45 05 00 bc 60 b8 66 3d
       0.2240625 -0.12000054 -0.007813756 0.056328177
000020 40 1b c1 bd f6 7b 75 bd 6b 37 67 bd 28 29 f9 3c
       -0.09429026 -0.05993267 -0.056449335 0.030415133
000030 fd 95 f2 3c f1 b2 8c bd 20 58 5e 3e 90 0e 94 bc
       0.029612536 -0.06870068 0.21713305 -0.01807335
000040 d5 31 7c bb d9 a1 51 3c a0 1c 2b be e0 87 ba bd
       -0.003848185 0.012794935 -0.16710138 -0.09107947
000050 d3 02 9a bc db 99 13 3d 73 fd 7f bc 9c 63 d4 bd
       -0.018800175 0.0360354 -0.015624392 -0.103705615
000060 30 d6 72 3d 5d 93 06 3d 62 44 f0 3d ed d4 2c 3d
       0.059286296 0.03285538 0.11731793 0.04219525
000070 bb 16 af bd 00 88 b0 bb 28 e6 67 be a0 1e 18 3e
       -0.08549257 -0.005387306 -0.22646391 0.14855433
000080 52 30 f8 bf 10 66 1d 3d 28 79 8f 3d bb cd 97 be
       -1.9389746 0.038427413 0.070055306 -0.29649147
000090 c8 b9 07 bd 2c c2 24 be 04 3a b4 bb 4b ef ce be
       -0.03313616 -0.16089696 -0.00550008 -0.4041694
0000a0 3e 00 8a 3d 51 03 c2 3d 66 6c 98 bd 9d 99 c2 3c
       0.067383274 0.09473289 -0.0744255 0.02375489
0000b0 b9 6d 4d bd d7 f3 24 bd 05 65 a9 be dd fa 3c be
       -0.050153468 -0.040271606 -0.33084884 -0.18455072
0000c0 72 f8 c8 3e f7 23 bd 3c 2a e7 5e 3e ed f5 c3 3e
       0.3925205 0.023088438 0.2176787 0.38273564
0000d0 5c 00 1b 3e 8a 09 4c bd ce f8 a9 bd f9 85 70 3c
       0.15136856 -0.049813785 -0.08299409 0.014680379
0000e0 99 61 b9 3c 70 30 45 bd a3 8d 60 3d 52 e3 3f 3e
       0.022629546 -0.048141897 0.054822575 0.1873906
0000f0 56 d6 f9 bd 55 5d 92 be c4 7e cd 3d 1b 23 25 3e
       -0.121990845 -0.28586832 0.10033944 0.16126673
000100 09 38 f8 bd 21 30 74 be c7 ac 55 be 78 d4 cb bd
       -0.12120063 -0.23846485 -0.2086669 -0.099526346
000110 ab 1b 03 3e 13 7d 43 bd bf db 61 bd 34 be 78 bd
       0.12803523 -0.047726702 -0.055141207 -0.060728267
000120 5a 0f b5 bd 77 56 b4 3c 6e e1 49 bc 93 0e b6 3c
       -0.08840819 0.022013886 -0.012321813 0.022223746
000130 16 c1 57 bd c6 6f 7d bc e1 9a b5 3c 06 fa fb 3d
       -0.052674375 -0.015468543 0.022168579 0.123035476
000140 60 02 fd 3d 09 0b d8 3b 2a 2e cc be 7e 25 19 3e
       0.123539686 0.0065931124 -0.3987897 0.14955708
000150 64 5a c6 bd cb 36 57 bd 8d 6f 78 3d 6c f1 b5 3d
       -0.096852094 -0.05254249 0.060653258 0.08883938
000160 0f db 5f 3c 8b 61 b0 3d 70 91 15 3d 5c ba b9 3c
       0.0136630675 0.08612355 0.036515653 0.02267187
000170 66 0c 5b be 1b 52 b3 be 09 c3 d1 bd f6 48 fa bd
       -0.21391448 -0.3502358 -0.10242278 -0.122209474
000180 eb 2b 5b 3e ff ab 21 be d4 11 de 3f ec 2b 96 be
       0.21403472 -0.15788268 1.7349191 -0.29330385
000190 90 a5 52 3e ca bd 4f be a1 9e 64 be 6a cf 0b be
       0.2057097 -0.20287243 -0.22326137 -0.13653341
0001a0 3a cd 05 bf a7 f7 b5 bd 86 fd ab bd 25 f8 bf 3b
       -0.52266276 -0.088851266 -0.08397965 0.0058584386
0001b0 d8 ae e5 bc cd ea cf 3c 4b 68 4b 3b ba 22 86 bd
       -0.028037474 0.025380516 0.0031037505 -0.06549592
0001c0 09 c9 a6 3e 6d 45 9d bd 20 a5 ab 3d a1 d7 47 3e
       0.32575253 -0.076792575 0.083811045 0.1951585
0001d0 37 14 13 3e 3c bc cb bd ab e7 6d bb 86 9f 9b 3c
       0.1436318 -0.09948012 -0.0036301415 0.018996965
0001e0 f0 5b cb bd d6 d9 83 3d 5c 3b dd 3d 5f 7d 5d bc
       -0.09929645 0.06438033 0.108023375 -0.01351866
0001f0 13 2f 77 bd fb 42 87 be 0b cf a8 3d 42 f5 04 3d
       -0.060347628 -0.2641829 0.08242615 0.03246046
000200 d6 f6 b6 bd df 2e 15 3d 88 fb 21 3e 5f 9b b5 3f
       -0.08933799 0.036421653 0.15818608 1.418804
000210 33 67 99 bd 93 5b 6a bd b0 68 e3 3d 1b 41 de 3e
       -0.07490387 -0.05721624 0.11103952 0.43409047
000220 3c 94 85 3e 3f 45 f8 3d 37 c8 6e be 42 c6 32 bd
       0.26089656 0.12122583 -0.23318563 -0.043646105
000230 46 cf f6 bc 8a ef 19 3d a4 a3 51 3d c4 5b 5b 3b
       -0.030128133 0.037581958 0.05118145 0.0033471445
000240 15 96 90 3c 5f cb 2e 3d 48 65 0f 3d 06 51 13 be
       0.01764969 0.04267442 0.0350087 -0.14386377
000250 45 7e dc 3d 2e 4d 01 bf e2 d8 2a 3e 0d 7a 88 3e
       0.107662715 -0.5050839 0.16684297 0.26655617
000260 c8 45 6e bd 6e de 89 3c fd cd 27 bd 0a 33 1d 3e
       -0.058172017 0.016829696 -0.04096793 0.15351501
000270 a8 8a 3b bd 52 e0 66 3c e8 c0 14 bd ad d7 dd be
       -0.04578653 0.014091568 -0.036316782 -0.4332861
000280 eb 3f 16 bd 2c 3a 24 3e 9d d5 8f 3e 43 db b1 bd
       -0.03668205 0.16037816 0.28092661 -0.08684399
000290 a4 51 7c bf 46 22 72 be ae 08 f7 bd 5f 3d d3 3d
       -0.98562074 -0.23645887 -0.120622024 0.1031444
0002a0 d6 46 43 be 44 f3 8c be 47 22 bd 3e c6 0c 95 3d
       -0.1906999 -0.27529347 0.36940214 0.07277827
0002b0 43 0d 4a bc 1e 4b 99 bd 8d 58 f4 bb 77 61 54 bd
       -0.012332263 -0.074850306 -0.007456845 -0.051850762
0002c0 44 4a 24 3c 8b ae 83 bc 3b 6e 31 3e 18 c0 0d 3c
       0.010027472 -0.01607444 0.17327206 0.008651756
0002d0 ad ed 1c 3d 3e 92 3a 3d 79 f2 41 be 48 d1 2f 3e
       0.038312603 0.045549624 -0.18940152 0.17169678
0002e0 84 fa aa 3e af 16 c9 3c 6c 40 42 bd 58 dc 0b 3c
       0.33394253 0.02454695 -0.04742472 0.008536421
0002f0 9b 61 33 bc f4 91 51 3c 66 af 5d 3b 4b 14 51 3d
       -0.010948564 0.012791146 0.003382647 0.051044744
000300 0e d6 0b be 17 ef 73 3d 19 d7 c8 bd b3 99 55 bd
       -0.13655874 0.059554186 -0.098066516 -0.052148532
000310 b0 a7 ea 3d 45 52 eb bf 3f 6a 9c 3e 74 63 25 3e
       0.11457765 -1.8384482 0.3054981 0.1615122
000320 c4 b8 80 3e 88 b7 5b 3d 29 5f 3d 3f 34 40 2b 3d
       0.25140965 0.053641826 0.7397333 0.041809276
000330 a8 9a 8a bc a1 91 5a 3d 68 4f 62 bd 7f 04 21 3e
       -0.016919449 0.05336154 -0.05525151 0.15724371
000340 15 5f 84 3c a0 bb 8e 3d 9e 5c a3 3c 51 81 cd 3d
       0.01615862 0.069693804 0.019941624 0.10034431
000350 aa 36 a8 3d 7d ef 01 3e db cf 2d be d6 5f 03 3e
       0.08213551 0.12689014 -0.16973822 0.12829527
000360 89 6c eb 3c 4e 28 79 3e ed 6c 33 bd 12 bd 48 3c
       0.028738277 0.24331781 -0.04380505 0.012252109
000370 60 d4 20 bb f6 bd f3 bd ce 13 96 3d 57 49 ef 3c
       -0.0024540648 -0.119014665 0.07327996 0.029209776
000380 28 c6 c5 be 90 bc f6 bd ea df 48 3e 85 b1 bd bd
       -0.38627744 -0.12047684 0.19616666 -0.09262375
000390 02 f5 69 3b 30 4d b5 bc cc 6f 3a bf f3 5b 3a 3f
       0.0035699015 -0.022131532 -0.7282684 0.72796553
0003a0 6d 18 49 3e 41 a9 74 bd 0f 95 8f be 98 10 d5 3e
       0.19638224 -0.059731726 -0.2804341 0.41614223
0003b0 6d 8e 95 3e bb 0e 5b 3e b8 9f da 3d 25 5a 6c 3e
       0.29210225 0.21392338 0.10674995 0.23081262
0003c0 82 17 1d 3d 63 8c ad 3d 10 50 41 3d b0 de 31 3d
       0.038352497 0.08474042 0.047195494 0.043425262
0003d0 6a 50 95 3e b1 2e f3 bd 04 6e 71 3d 7e 4b 0b bf
       0.29162914 -0.1187414 0.05894281 -0.54412067
0003e0 04 17 26 3f 4a 1a 8b 3e 79 1a cc 3e 21 11 91 bd
       0.6487887 0.27168494 0.39863947 -0.07083345
0003f0 16 89 ef 3c 2e 8e 06 be 7f ef 76 3d e7 98 79 3c
       0.029240172 -0.13140175 0.060286995 0.015234209

critic.0.bias f4 [64]
000000 a2 f8 8b be ab d0 05 3e 8b 08 8c 3e 85 f1 83 bd
       -0.2733813 0.13067882 0.27350268 -0.064425506
000010 45 b6 c3 3e 18 a8 0c bc 88 7c 25 be 7a 8b 01 be
       0.38224998 -0.008584999 -0.16160786 -0.12650862
000020 2a 94 41 be f8 71 08 bd 5b cb b3 3e fc e6 ad be
       -0.18904176 -0.033311814 0.35116085 -0.3396529
000030 1b 39 65 3d d3 86 60 bd 58 ba 3e be da 57 b5 bc
       0.055962663 -0.05481608 -0.18625772 -0.022136617
000040 e7 21 bc 3d 89 65 33 3b 30 3d f4 3d 58 87 14 3c
       0.09186154 0.0027373752 0.11925733 0.009065472
000050 76 0a 04 3e a6 f8 12 be 8c 43 c3 be 42 18 68 3e
       0.12894616 -0.14352664 -0.38137472 0.22665504
000060 e2 f8 35 be 2d 07 0f 3e ab e2 88 be 8b 14 84 3d
       -0.17770723 0.13967581 -0.26735434 0.06449231
000070 fa ed 02 bd 25 2d 34 3b 8f 98 11 be c8 47 d0 bc
       -0.031965233 0.0027492729 -0.14218353 -0.025424853
000080 3d 60 2b 3e 15 2d e9 bd f4 f1 f0 bc a2 11 e7 3d
       0.1673593 -0.11385552 -0.029412247 0.1128266
000090 41 42 da 3e 3a 35 aa be 94 bb 8b 3e 83 a4 c8 bd
       0.42628673 -0.33243734 0.27291548 -0.09797003
0000a0 b7 ad 18 3c e8 de b1 3b 17 d4 8b bd f7 4f 13 bd
       0.009318761 0.005428184 -0.06827562 -0.035964932
0000b0 ca 3e d5 bc 8b 3b 24 bc f1 f7 b9 3d d6 a4 7c be
       -0.026030917 -0.010023962 0.09080494 -0.24672255
0000c0 a9 7b 24 be 2f 94 77 be 06 bf 91 be 06 85 8a 3d
       -0.16062798 -0.24177621 -0.28466052 0.067636535
0000d0 c2 73 5e bd 0b a3 47 be 44 2f fc bd 6a 20 97 3e
       -0.054309614 -0.1949579 -0.12313703 0.29516917
0000e0 99 6f 8f bd ae cd ce bd 8c 06 5b bd 39 ed fd bc
       -0.070037074 -0.10097824 -0.05347304 -0.030996906
0000f0 19 5c af bd 3f 18 6f bd 1d 80 8a bd 53 ff 8a 3e
       -0.08562488 -0.058372732 -0.06762717 0.27147922

critic.2.weight f4 [64, 64]
000000 cc e1 17 be 3d 42 2e be df de 2a be 9b a6 90 3e
       -0.14832228 -0.17017455 -0.16686581 0.2825211
000010 b8 92 e7 bd be 37 04 3e 92 6d e9 bd 60 d4 63 3e
       -0.11307281 0.12911889 -0.11397852 0.22248983
000020 d9 3d cd 3c 50 fa 8f 3e 31 b6 23 3d a0 06 a4 bd
       0.025053905 0.2812066 0.039968673 -0.08009076
000030 9e 5c 2b 3d 7a 0f 8c be 32 12 4c bd 6c 4e 57 bc
       0.041836374 -0.27355558 -0.04982204 -0.013141256
000040 07 87 41 be ac 2e 2e be e0 a4 98 3d 0f 6f 1b 3e
       -0.18899165 -0.17009991 0.074533224 0.15179084
000050 cc 3d af 3d 1b a4 29 3e 53 25 eb 3d 72 22 a3 3e
       0.08556709 0.16566508 0.114817284 0.31862217
000060 1c e6 10 3e be c4 e2 3d 79 92 0a bc e8 65 ce bd
       0.1415028 0.11072682 -0.008457773 -0.10078031
000070 12 2e 81 3e 7f ba 4d be 73 c7 7a 3e 33 1f a5 bc
       0.2523046 -0.20090674 0.24490146 -0.020156479
000080 f5 14 15 3e e4 e8 ad bc 1f 15 13 be df 80 ba bd
       0.14558776 -0.021229215 -0.14363526 -0.091066115
000090 2f c1 25 3c b9 aa ce 3d 90 76 ac bd ee 17 55 be
       0.010116859 0.100911565 -0.084210515 -0.2080991
0000a0 84 c6 3b be aa 99 1f 3e f8 14 07 3f ae 59 83 bd
       -0.18337446 0.15585962 0.5276637 -0.064135894
0000b0 c1 7f 39 be 06 21 d7 be 6a 99 d6 3c ac d2 35 3d
       -0.1811514 -0.42017382 0.0261962 0.044390365
0000c0 6b 66 0d be 38 f0 1b bb 68 00 53 3e 4f 58 b1 be
       -0.138086 -0.0023794305 0.20605624 -0.34637687
0000d0 00 dc 1e 3e 9d 57 f4 be 70 e3 c0 bd 53 f6 1b bc
       0.15513611 -0.47723094 -0.0941838 -0.0095191775
0000e0 37 74 6f be c1 76 ae 3d 84 ed c3 be 34 6e 1b 3e
       -0.23384176 0.08518744 -0.38267148 0.15178758
0000f0 51 95 7c be 2b 1b 68 be 7a a5 8c bb ab 21 9a be
       -0.24666335 -0.22666614 -0.0042921873 -0.30103812
000100 c4 98 1b 3d e3 c5 c9 3d e8 89 39 3e 14 8a a4 3d
       0.037987486 0.09852197 0.18119013 0.08034149
000110 1d 96 4d 3d 0d 41 df 3d d7 51 01 be f2 30 e3 3d
       0.050191987 0.10901079 -0.12628876 0.1109332
000120 6a ec a8 3d b1 5e 84 bc 6c d7 07 bd 2a 50 fc 3d
       0.082482174 -0.016158434 -0.033164427 0.123199776
000130 dd dd 55 3d 64 2b 38 3e 5e dc 03 3e e2 79 bb bd
       0.05221354 0.17985302 0.12877032 -0.09154107
000140 9c 24 73 bd 44 14 9b 3d 7a 54 3e 3d 4a 90 9e bd
       -0.059361085 0.07572225 0.046467282 -0.07742365
000150 0a 8f d5 bd fd 6b 1a 3e 15 84 46 3e 3b 7c 4f be
       -0.10427673 0.15080257 0.19386323 -0.20262234
000160 06 4e 68 3d 6a 07 01 bd 86 cc 62 be a5 73 02 3e
       0.056715034 -0.03150121 -0.22148332 0.12739427
000170 a1 c6 da 3c 41 a4 61 bd 62 93 a0 3d b9 d9 6e bd
       0.026706042 -0.055088285 0.07840611 -0.058313105
000180 4f c1 d5 3d 47 d5 9b 3a 4a fe c8 bd 1e 36 5a bd
       0.10437261 0.0011889123 -0.09814127 -0.053274266
000190 40 a5 2b 3e 99 22 72 3c 4c e7 b9 bc f3 3d 8f ba
       0.16762257 0.014778757 -0.022693299 -0.0010928496
0001a0 a9 cf 96 3d 6f d7 b3 3d 85 a4 07 be e4 50 ba 3c
       0.07363827 0.08781325 -0.13246353 0.02274365
0001b0 0d 31 55 3d 64 a7 83 bd 6e 75 01 3e 7f e2 92 3d
       0.05204873 -0.064284116 0.12642452 0.07172107
0001c0 be e6 dc 3c 01 51 e1 3d 42 90 97 3c a0 4f b6 bd
       0.026965495 0.110017784 0.018501405 -0.08901906
0001d0 7e fd f9 3d e9 7d a7 3d da c7 90 be 86 09 1d 3e
       0.12206553 0.08178312 -0.28277475 0.15335664
0001e0 c9 16 47 3d e5 68 d7 bd ef e0 85 3d 9f 46 27 3b
       0.048605714 -0.10518054 0.06537043 0.0025524271
0001f0 fe ee 84 be 89 d6 bc bd 77 e6 88 3e 82 da 88 3b
       -0.25963587 -0.09220607 0.2673833 0.004176439
000200 ca f1 05 3e 5d f9 89 3c 48 0a 42 bc ff ed ff bd
       0.13080516 0.016842538 -0.011843272 -0.12496566
000210 23 14 3c 3e 62 5f 1e be 8b ac 65 3d 82 58 95 3e
       0.18367057 -0.15466073 0.056072753 0.2916909
000220 83 0b 42 3e 53 3d 84 be 2f 84 cb bb 95 f7 8f bd
       0.18949704 -0.25828037 -0.006210826 -0.070296444
000230 ad 4b 85 3e e5 39 a5 be 3e 49 0c 3e 1c 69 29 bd
       0.260343 -0.32270733 0.13699815 -0.041360006
000240 c0 56 c6 3d 77 9f 42 bb 10 04 ad be d6 58 4d bc
       0.09684515 -0.00296971 -0.33792162 -0.012533387
000250 b7 e4 20 3e a7 dd 8b bd df e2 b6 3d cd fa 43 bd
       0.15712248 -0.06829386 0.08929991 -0.047846604
000260 f5 27 93 bc 08 17 70 be 1f b4 5d be d2 c8 07 3d
       -0.017963389 -0.23446286 -0.21650742 0.0331505
000270 36 43 88 bc b9 05 20 bd bd 4a de bd 9f 53 40 3d
       -0.016633611 -0.039067958 -0.10854099 0.046954747
000280 2e 95 d0 bd 61 b5 39 be 3d 46 ff 3d c5 d3 79 be
       -0.10184704 -0.18135597 0.12464569 -0.2439719
000290 5b a2 cf 3c 3b 2e 0c 3d ee 00 be 3d e4 6c 50 3e
       0.025345972 0.034223776 0.09277521 0.20354038
0002a0 5b 51 24 3e 74 06 46 3e 8a 29 17 bf fe 10 9e bc
       0.1604666 0.19338399 -0.5904776 -0.019295212
0002b0 fe 1b 6c bd 2b 9a 2b 3d 71 81 83 bc 9d e8 60 3e
       -0.057643883 0.041895073 -0.016052933 0.21963735
0002c0 63 36 c1 3d 1d 1e 1a 3e 54 7a a2 bd 93 3c 10 3e
       0.094342016 0.1505055 -0.079334885 0.14085607
0002d0 27 60 3e bd 21 dc 55 3d ff 5b 3c be 2b ce 27 3e
       -0.046478417 0.052211884 -0.18394469 0.1638724
0002e0 2d 53 94 be 1a 47 16 be 7d 66 15 3e 94 08 ea bd
       -0.28969708 -0.1467556 0.14589877 -0.114274174
0002f0 87 10 93 3e 39 e0 3e 3e 9f 66 68 3e c5 79 47 be
       0.28723547 0.18640222 0.22695397 -0.19480045
000300 79 30 2c bd 81 49 fb 3b 9b 97 bd bd c1 19 15 ba
       -0.042038415 0.0076686745 -0.09257432 -0.00056877366
000310 36 39 36 3c a6 06 72 bd 8d 55 58 3e ba 62 f3 3d
       0.011122039 -0.05908837 0.21126385 0.11884065
000320 04 19 80 3e 63 5c e6 3e e3 85 5c be 8b f1 45 3d
       0.25019085 0.4499236 -0.21535449 0.048326056
000330 d5 4e 61 3b 4a 48 2a be 2e 73 1b bc 7a a9 78 3e
       0.0034379263 -0.16629139 -0.00948791 0.242834
000340 07 29 52 bd 63 ce 1a bf b3 47 3c 3c 54 e9 48 bb
       -0.051308658 -0.6047117 0.011491704 -0.0030656653
000350 37 b0 89 bd c8 70 70 3c 3c ca 0f bb 66 bf 26 be
       -0.067230634 0.014675327 -0.002194061 -0.1628395
000360 d5 ec 74 3d 33 e5 bb bd 45 7a 75 bc 52 f6 b2 be
       0.059796173 -0.09174576 -0.014982765 -0.34953552
000370 d6 2b c1 3e 83 b7 05 bf df 8e 5f 3e b1 fd ce 3e
       0.37728757 -0.5223314 0.21831845 0.40427926
000380 db 3a f3 3d bb a8 b5 3c bc 73 17 bd 03 52 74 be
       0.1187646 0.022175184 -0.036975607 -0.2385941
000390 98 59 84 be 70 99 be 3c 83 2a f2 bd af 1a 70 be
       -0.25849605 0.023266524 -0.11824515 -0.23447679
0003a0 3a c4 ad be 47 d0 24 ba 4c 36 03 3f e7 52 13 bc
       -0.3393877 -0.0006287139 0.51254725 -0.008991933
0003b0 46 02 80 3e 53 d8 12 bd 5b 92 36 be c9 1f c4 bd
       0.25001734 -0.035850834 -0.17829268 -0.09576375
0003c0 61 c7 9e bd 6d d4 a5 bd 64 6a de 3d 6b 4d d0 bd
       -0.07752872 -0.080971576 0.10860136 -0.10171016
0003d0 1d 19 3b 3d 0c 66 2c 3d 61 34 59 3e 88 00 b7 3b
       0.045678247 0.042089507 0.21211387 0.00558478
0003e0 a9 d3 96 3e 92 72 ec 3d 19 fe 85 bc 2b cd 2a be
       0.2945836 0.1154529 -0.016356515 -0.16679828
0003f0 90 6c 3c be 49 f2 12 be 87 58 5c 3c 06 78 b5 bc
       -0.18400788 -0.14350237 0.013448841 -0.022151958

critic.2.bias f4 [64]
000000 0a a3 b2 3d a9 40 8a 3d 78 2b 21 3e 96 54 24 3e
       0.087225035 0.06750614 0.15739238 0.16047892
000010 70 6b e6 bd e1 29 f1 3a 05 dd 01 bf 6c 5e be bd
       -0.11250961 0.0018399322 -0.50727874 -0.09295353
000020 40 51 85 be 6f cc 13 3e ab aa ad 3d 06 9f 38 be
       -0.2603855 0.14433454 0.08479818 -0.18029413
000030 20 4b cc 3d 3c d2 26 be 10 bf d1 bd 60 d3 97 3e
       0.099752665 -0.16291136 -0.102415204 0.29653454
000040 5a c3 4b be ee 16 0b 3d 7f 64 46 be fb 57 6c 3e
       -0.1989874 0.033957414 -0.19374274 0.23080437
000050 9c a8 53 be f6 66 f6 3c 08 56 2c be f3 02 83 be
       -0.20669788 0.030078392 -0.16829693 -0.25588188
000060 f2 20 7d be 66 f4 fb 3c f4 3f 35 3e 6b ba b6 bd
       -0.24719599 0.030756187 0.17700177 -0.08922275
000070 a4 f0 46 3e c4 30 d0 3e 75 8b ec bd 20 77 10 3d
       0.19427735 0.40662205 -0.11550037 0.035269856
000080 43 24 84 3e 68 e8 4f 3e 65 ed 86 be 63 d6 cd 3d
       0.25808915 0.203035 -0.26352993 0.10050657
000090 f6 19 49 be 9f bd 34 3e 0b 40 e1 3e bd f7 0b be
       -0.1963881 0.1765046 0.43994173 -0.13668723
0000a0 72 65 7b 3e cb fe a5 bd 17 89 3a 3e d4 1a 8f be
       0.24550417 -0.081052385 0.18216358 -0.27950156
0000b0 f4 d4 83 bd b7 34 85 3e 61 55 e2 3d e3 ce 87 3e
       -0.06437102 0.2601678 0.11051441 0.2652503
0000c0 76 94 27 be a9 c1 99 be c8 77 4d 3e 28 3e 1a 3d
       -0.16365227 -0.30030563 0.20065224 0.037656933
0000d0 89 bf c4 bd d5 44 2a 3e 12 ab 9d bd cd f3 0c 3c
       -0.09606845 0.1662782 -0.07698645 0.0086030485
0000e0 9d b1 62 be 5b 9b b0 3e 81 2f ac 3e e1 42 af 3c
       -0.22138067 0.34493527 0.33629993 0.021394195
0000f0 dd a4 b2 3e d5 a4 46 3e d0 d0 b6 be 62 be 43 be
       0.34891406 0.19398816 -0.35706186 -0.19115594

critic.4.weight f4 [1, 64]
000000 10 f9 a8 3d d7 79 86 3b 0d f6 0f 3e b5 f2 4f 3e
       0.0825063 0.00410388 0.14058705 0.20307429
000010 2f 3d 4e bb 6f 16 d3 3d 32 eb 1e be 5d 61 0e bd
       -0.0031469574 0.10307013 -0.15519407 -0.03476082
000020 1a d7 03 be 97 87 76 3d b8 70 a5 3d bf e6 7e bd
       -0.12875023 0.060187902 0.0807814 -0.062231775
000030 f9 fe 57 3d 1c fe ec bd 89 29 d4 bd ca eb 17 3e
       0.052733395 -0.11571905 -0.10359485 0.1483604
000040 44 82 e4 bd 3e 07 8e 3d 09 d6 16 be 67 48 92 3d
       -0.11157659 0.06934975 -0.14730085 0.07142716
000050 27 53 1a be c5 70 94 bb 7f 28 29 3b 41 9c 0f be
       -0.15070783 -0.0045300447 0.002581149 -0.1402445
000060 d6 a1 d4 bd 46 36 6f bd dd 29 01 3e 5b a1 73 ba
       -0.1038243 -0.05840137 0.12613626 -0.0009293758
000070 e4 8f 99 3d e5 34 4a 3e 61 b1 92 bd 63 0c bf 3b
       0.07498148 0.1974674 -0.071627386 0.005830334
000080 20 c9 14 3e 7a d6 61 3d 5a b5 14 be f7 9a e1 3d
       0.14529848 0.05513618 -0.14522305 0.11015885
000090 10 49 12 be 41 58 6a 3c 5c 26 df 3d 6a 2c c5 3b
       -0.14285684 0.014303268 0.10895988 0.0060172575
0000a0 87 25 26 3e 57 0d 1b bc e0 46 31 3e 25 7b 6f be
       0.16225253 -0.00946363 0.17312193 -0.2338682
0000b0 1f b7 99 bd b5 d1 0e 3e 1d 33 11 3e f9 14 92 3d
       -0.07505631 0.13947184 0.14179654 0.071329065
0000c0 e8 9c 04 be 62 33 13 be 97 50 ae 3d 7b e4 69 bc
       -0.1295048 -0.1437507 0.08511465 -0.014275665
0000d0 04 2e a5 bd 4c 29 4e 3e 56 ab d5 bd 86 ce d7 bc
       -0.080654174 0.20132941 -0.1043307 -0.026343595
0000e0 e5 b2 0e be c6 1f fc 3d 55 67 8f 3d e4 1e 10 be
       -0.1393543 0.12310748 0.07002131 -0.14074284
0000f0 db 83 e7 3d bc 71 d2 3d 9d f3 c3 bd 25 22 85 bd
       0.11304446 0.10275599 -0.0956795 -0.06500653
